cnn1d_sentiment.onnx (onnx, 37167 bytes, 5 tensors)

conv1.weight f4 [16, 1, 5]
0	0x3eb874da	0.3602665
1	0x3e96d035	0.29455724
2	0x3d86e2fc	0.065862626
3	0xbedc4c33	-0.43026885
4	0xbe34655c	-0.1761679
5	0x3eaacab6	0.3335778
6	0x3eab5279	0.3346136
7	0x3e19f6d1	0.15035559
8	0x3e6a3146	0.22870359
9	0xbe647549	-0.22310366
10	0xbeabed19	-0.3357933
11	0x3f45deb4	0.77292943
12	0xbcf0825e	-0.029359039
13	0x3d0e0cb0	0.03468007
14	0xbedde478	-0.4333837
15	0xbecb6013	-0.39721736
16	0x3e99872a	0.29985934
17	0xbe2ec2ad	-0.1706645
18	0xbedf50cd	-0.43616334
19	0xbe9dd810	-0.30828905
20	0x3ef9f971	0.4882312
21	0x3db08b12	0.086202756
22	0x3e012871	0.12613083
23	0xbe0fbe2e	-0.14037392
24	0x3d811170	0.06302154
25	0xbe177c42	-0.14793494
26	0xbeb564d1	-0.3542848
27	0xbf6e8139	-0.9316593
28	0xbe3d64e9	-0.18495525
29	0xbef02510	-0.46903276
30	0x3e94b6f0	0.2904582
31	0xbe4d6324	-0.2005735
32	0x3ebe051c	0.37113273
33	0xbdfa1984	-0.12211898
34	0xbebc633a	-0.36794454
35	0x3d83369a	0.06406899
36	0xbe85882d	-0.26080456
37	0xbece303e	-0.4027118
38	0xbec5e8d6	-0.38654202
39	0xbf0b8b1a	-0.5450913
40	0xbeab89ae	-0.3350348
41	0xb8b3b92b	-8.569875e-05
42	0x3ead24d3	0.33817157
43	0xbe5e1ac6	-0.21689901
44	0x3d79905d	0.06092869
45	0x3e1817ad	0.14852782
46	0x3f22e024	0.6362326
47	0x3ea24413	0.31692562
48	0x3d785989	0.060632262
49	0x3e92215f	0.28541085
50	0xbc6a15ba	-0.014287407
51	0xbcc4e7cb	-0.024036309
52	0x3edf1b7e	0.43575662
53	0xbe5d48da	-0.21609822
54	0xbe944f14	-0.28966582
55	0xbe7c948f	-0.24666046
56	0xbe0d949b	-0.1382622
57	0xbd46475b	-0.048407894
58	0xbcb99e58	-0.022658512
59	0x3e997c27	0.29977533
60	0x3e04fd5b	0.12987272
61	0xbf5db8aa	-0.866099
62	0x3f56d109	0.8391271
63	0x3c2cca00	0.010546207
64	0xbeb30932	-0.34967953
65	0xbe66744a	-0.22505298
66	0x3f3ed0b5	0.7453721
67	0xbf514937	-0.8175234
68	0xbdfd7fa2	-0.1237786
69	0x3e5f2535	0.21791537
70	0xbdd0bcbe	-0.1019225
71	0x3e851c12	0.25997978
72	0xbe0c3c61	-0.13694908
73	0xbe7a688f	-0.24453948
74	0xbd7e1103	-0.062027942
75	0x3ea3d85e	0.32001013
76	0xbf33fae6	-0.70304716
77	0xbc0a9056	-0.008457264
78	0xbd1eb03e	-0.038742296
79	0x3ee5c8c7	0.44879743

conv1.bias f4 [16]
0	0xbe840c7f	-0.25790784
1	0x3cc04c85	0.023473987
2	0x3ce3f21b	0.027825406
3	0xbee364fc	-0.44412982
4	0x3d0b0826	0.033943318
5	0xbd27976e	-0.0409159
6	0xbe6db6c1	-0.23214246
7	0x3d72ba42	0.05925966
8	0xbe3019a3	-0.1719728
9	0x3d47e09c	0.04879819
10	0xbe9aa81b	-0.3020638
11	0xbe6aee55	-0.22942479
12	0x3d1d8f81	0.038466934
13	0x3d170426	0.03686919
14	0xbe69a8ea	-0.22818342
15	0x3cbe5a94	0.02323655

conv2.weight f4 [32, 16, 5]
0	0xbd8a821e	-0.06763099
1	0x3d6efa98	0.058344454
2	0xbc248897	-0.010042331
3	0xbdd37f18	-0.103269756
4	0xbd8b04a3	-0.06787994
5	0xbdb9dac5	-0.0907493
6	0x3d1d8148	0.03845337
7	0xbe097716	-0.13424334
8	0xbd301ac7	-0.042994287
9	0xbd8aed26	-0.06783514
10	0xbddd4c2c	-0.10805544
11	0xbd344202	-0.044008262
12	0xbd314a9f	-0.043284055
13	0x3dd9f7b2	0.10642947
14	0x3bc4fdeb	0.0060117147
15	0x3c9a5eec	0.01884409
16	0xbdb4ffb6	-0.088378355
17	0x3d970a60	0.07375026
18	0x3d1d872e	0.038458996
19	0xbd8f3256	-0.06992023
20	0xbe2bf9bb	-0.16794483
21	0x3d177797	0.036979284
22	0xbdee68c1	-0.11641074
23	0xbdea026c	-0.11426243
24	0xbe1be7f4	-0.15225202
25	0xbe142c37	-0.14469992
26	0xbdf45c29	-0.11931641
27	0x3d1581da	0.03650079
28	0x3d0c3079	0.034225915
29	0xbd8abe22	-0.06774546
30	0x3c58fb90	0.013243571
31	0xbd4d0390	-0.050052226
32	0x3bfc8713	0.007706532
33	0x3d33505a	0.0437778
34	0x3d10ca15	0.03534897
35	0xbe07bae7	-0.13254891
36	0xbe0a4995	-0.13504632
37	0xbb8b0878	-0.004242953
38	0xbdc5f6ab	-0.09666189
39	0x3b30158f	0.0026868319
40	0x3c9c28e6	0.01906247
41	0xbde01e60	-0.109432936
42	0x3d5c7fad	0.0538327
43	0x3dc18348	0.09448868
44	0x3d9e20fc	0.07721135
45	0xbd9864e0	-0.074411154
46	0xbd847b3c	-0.064688176
47	0x3d31b8bb	0.043389063
48	0xbdc9770b	-0.09837159
49	0xbdb91cb8	-0.09038681
50	0xbdc9552f	-0.098307006
51	0x3da1011b	0.07861539
52	0xbd67591c	-0.056481466
53	0xbda2198b	-0.07915028
54	0x3d813151	0.063082345
55	0x3dbdc1d2	0.09265484
56	0xbbadd95b	-0.005305452
57	0x3dbb6b73	0.09151354
58	0x3cb46b45	0.022023806
59	0xbca443f8	-0.020051941
60	0x3d063737	0.0327675
61	0x3d5390ca	0.051651753
62	0xbded67e2	-0.1159208
63	0xbcc1d7fd	-0.023662562
64	0x3d4756a4	0.04866661
65	0xbe2c247d	-0.16810794
66	0x3da50f2d	0.08059535
67	0xbd733730	-0.059378803
68	0xbc77b34b	-0.01511843
69	0x3c84905b	0.016182115
70	0xbdcbfa0d	-0.09959803
71	0xbd9a2313	-0.07526221
72	0x3d9dbe33	0.07702293
73	0xbca81e05	-0.020522127
74	0xbde2155f	-0.110392325
75	0xbd255b38	-0.040370196
76	0x3d2ef8ac	0.04271762
77	0xbd57ce7c	-0.052687153
78	0xbe17d1ee	-0.14826176
79	0x3d8ddb72	0.069266215
80	0x3cc26f20	0.02373463
81	0xbced8204	-0.02899266
82	0x3cc12367	0.023576451
83	0xbdb81b3d	-0.0898957
84	0x3c04a9a0	0.008097082
85	0xbef36024	-0.47534287
86	0xbcff60e0	-0.031174123
87	0x3e43557b	0.19075577
88	0x3eda5119	0.42639998
89	0xbec404c8	-0.38284898
90	0x3e7a7b7e	0.24461171
91	0x3e97064c	0.29496992
92	0xbc380a65	-0.011232947
93	0xbf135d08	-0.5756383
94	0xbca2a848	-0.019855633
95	0xbcb8538c	-0.022500776
96	0xbc83785f	-0.016048608
97	0x3db278ed	0.08714471
98	0x3d80a45e	0.062813506
99	0x3db43d6e	0.08800779
100	0xbe3934e9	-0.1808659
101	0xbda23f74	-0.07922259
102	0x3f0d9c4d	0.5531662
103	0xbdefb7f5	-0.11705009
104	0xbd409d36	-0.047024928
105	0x3cad9a44	0.021191724
106	0xbd00de04	-0.03146173
107	0xbe2aa28b	-0.16663568
108	0x3e4220ca	0.1895782
109	0x3ece444c	0.4028648
110	0xbdc3dcbc	-0.09563586
111	0xbdce9b42	-0.10088207
112	0x3de394e6	0.111123845
113	0x3d1c005b	0.038086277
114	0x3d06304e	0.03276091
115	0x3e9f0d5e	0.31064886
116	0xbee8f2ab	-0.4549764
117	0xbeb4ba49	-0.35298374
118	0xbd91222c	-0.07086596
119	0xbe490277	-0.19629847
120	0xbdb6a1a1	-0.08917547
121	0xbda25dbc	-0.07928035
122	0xbd9fbf02	-0.07800104
123	0xbd6aa611	-0.05728728
124	0x3dde72c4	0.108617336
125	0xbea781d6	-0.32716244
126	0x3e3aac11	0.182297
127	0x3f30362d	0.68832666
128	0x3e10a912	0.14126995
129	0x3f00b37c	0.5027387
130	0x3d4ce477	0.05002257
131	0xbb6965c0	-0.0035613626
132	0x3dc7d141	0.09756709
133	0xbbe9db08	-0.0071367063
134	0xbd6fc9f3	-0.058542203
135	0x3db92b45	0.09041456
136	0xbd525b8f	-0.05135685
137	0x3dc793ca	0.097449854
138	0x3c73c852	0.014879303
139	0x3cc638c4	0.02419699
140	0xbf0bc511	-0.54597574
141	0xbe8c1525	-0.27359882
142	0x3f146afd	0.5797575
143	0x3e367060	0.17816305
144	0x3e875454	0.26431525
145	0x3f738e35	0.95138866
146	0x3e4af979	0.19821729
147	0xbef3bb09	-0.47603634
148	0xbe2272b4	-0.15864068
149	0xbcfefb40	-0.031125665
150	0x3d806139	0.06268544
151	0xbd865c61	-0.06560589
152	0xbc3dd477	-0.0115863
153	0x3da8419f	0.08215641
154	0xbd847acd	-0.06468735
155	0x3e8d08cd	0.27545777
156	0xbebff6d6	-0.37493008
157	0xbe7ad3c0	-0.24494839
158	0x3eb39c62	0.35080248
159	0xbe5556d7	-0.20833908
160	0xbd019831	-0.03163928
161	0xbdcba7aa	-0.09944089
162	0x3b9c7794	0.004774997
163	0xbd2d6e35	-0.04234143
164	0x3d5f6252	0.054537125
165	0x3d9f39ff	0.07774734
166	0xbd8d2268	-0.06891328
167	0xbdddddf9	-0.108333535
168	0xbd9d1c25	-0.07671384
169	0x3d366717	0.044531908
170	0xbdf91e1b	-0.12163945
171	0xbd933285	-0.0718737
172	0xbd2883e4	-0.041141406
173	0xbd6f3337	-0.05839845
174	0xbd83caed	-0.064351894
175	0x3dc51912	0.096239224
176	0xbb59bab0	-0.0033222847
177	0x3dd0621b	0.10174962
178	0x3dc2aaef	0.09505259
179	0xbda48ca8	-0.080346406
180	0xbdb86904	-0.09004405
181	0x3d1debd3	0.038554978
182	0x3cfed18e	0.031105783
183	0xbba6abd5	-0.005086402
184	0xbe1658e3	-0.14682345
185	0xbe08be6e	-0.13353893
186	0xbd2aebf2	-0.04172892
187	0x3d03c435	0.03216954
188	0xbd878fd7	-0.06619232
189	0x3c42e2d7	0.011894903
190	0xbdc3489c	-0.095353335
191	0xbdaecf04	-0.08535579
192	0x3d95d4ba	0.07315965
193	0x3dbedcdf	0.093194716
194	0xbd7bc06d	-0.06146281
195	0x3d9323f5	0.07184593
196	0xbcdae08c	-0.0267184
197	0xbdd7e6bb	-0.10542055
198	0xbc27264c	-0.010202002
199	0x3d37fa9d	0.044916738
200	0x3dd65dfa	0.10467143
201	0xbdaa16b7	-0.08305114
202	0xbcd2cf79	-0.025733696
203	0x3d1b459e	0.03790819
204	0x3dccfc28	0.100090325
205	0xbd84d966	-0.06486778
206	0xbdc4f229	-0.09616501
207	0x3d40281b	0.046913248
208	0xbdeb1e8e	-0.11480437
209	0xbdd75c96	-0.10515706
210	0xbdb77db7	-0.08959525
211	0xbd8a02e3	-0.06738832
212	0xbd5348f2	-0.051583238
213	0x3dd5f949	0.10447938
214	0x3dad25a2	0.084544435
215	0xbd9548b1	-0.072892554
216	0xbbf6eca2	-0.007535533
217	0x3d9dcb9e	0.077048525
218	0x3bef5ee2	0.007305012
219	0xbcdc1baf	-0.02686867
220	0xbe0bfa7d	-0.13669772
221	0xbdfbe024	-0.12298611
222	0xbd90c56f	-0.070689075
223	0xbb073c7d	-0.002063542
224	0xbdbddc92	-0.09270586
225	0x3cd8defb	0.026473513
226	0x3db2e06a	0.0873421
227	0xbc507988	-0.012724288
228	0xbdf437d6	-0.11924712
229	0xbc99de81	-0.018782856
230	0xbd8d049e	-0.06885646
231	0x3d41e8c7	0.047341134
232	0xbd4a5138	-0.049393862
233	0x3d99e9cf	0.075152986
234	0xbd625d6b	-0.05526487
235	0x3ca8a206	0.020585071
236	0x3d6a54b0	0.05720967
237	0xbd2466d0	-0.040137112
238	0xbd87ac8f	-0.0662471
239	0xbd6f342a	-0.058399357
240	0x3d613837	0.05498525
241	0xbcf7e730	-0.030261606
242	0x3d760e94	0.060072497
243	0x3da564cd	0.08075867
244	0x3c594f4d	0.013263536
245	0xbe1582af	-0.14600633
246	0x3efaedf2	0.49009663
247	0xbedd14a7	-0.4317982
248	0x3da0c9b8	0.07850975
249	0x3c42ad8b	0.011882196
250	0xbd9718a4	-0.07377747
251	0x3f373ec6	0.7158016
252	0x3d294364	0.041324034
253	0xbc8a5a2d	-0.016888702
254	0xbe73022c	-0.23731297
255	0xbd27b0f1	-0.04094023

conv2.bias f4 [32]
0	0xbc5be9f2	-0.013422476
1	0xbc509d4d	-0.012732816
2	0xbdbfc812	-0.09364332
3	0xbd2567fb	-0.040382367
4	0x3b74b6ea	0.003734047
5	0xbd58798f	-0.052850302
6	0x3cc994ca	0.024607081
7	0xbd8d7050	-0.069061875
8	0xbd78ff05	-0.06079008
9	0xbc033a33	-0.008009481
10	0xbc6421c6	-0.013924068
11	0xbdd47651	-0.103741296
12	0xbc2a09b8	-0.010378294
13	0x3baeaa3a	0.005330351
14	0xbccc28db	-0.024921825
15	0xbd228239	-0.03967497
16	0xbdec6bb5	-0.11543981
17	0xbdbcf916	-0.09227197
18	0xbdf04f76	-0.11733906
19	0xbd639004	-0.055557266
20	0xbc880734	-0.016604997
21	0xbd657aa7	-0.056025174
22	0xbdf75c3e	-0.12078141
23	0xbdeddcca	-0.11614378
24	0xbdaae8dc	-0.08345196
25	0xbd40d252	-0.047075577
26	0xbd086692	-0.033300944
27	0xbdac8c3a	-0.084251836
28	0x3d5e441b	0.05426417
29	0xbdd1181d	-0.10209677
30	0xbd0d443f	-0.034488913
31	0xbd0731b0	-0.03300637

fc1.weight f4 [1, 6144]
0	0x3c6648a7	0.014055408
1	0x3cdc486d	0.026890004
2	0xbbc660bd	-0.0060540126
3	0xbcc9469a	-0.024569798
4	0x3d10d738	0.0353615
5	0xbc2f9124	-0.010715757
6	0x3b905e6a	0.0044057863
7	0x3c93ed4a	0.018057484
8	0x3c05b7e8	0.008161522
9	0xbca8a248	-0.020585194
10	0xbbb35c1c	-0.005473627
11	0xbc1cfe3a	-0.009582097
12	0xbc396c9e	-0.0113174
13	0xbc872ef7	-0.016501887
14	0x3ce4f33f	0.02794802
15	0x3d075c95	0.033047277
16	0x3c52259a	0.012826348
17	0x3c9b3931	0.01894817
18	0xbc258c42	-0.010104241
19	0x3af3d347	0.0018602394
20	0xbc2c7f27	-0.010528362
21	0x3bc15189	0.0058996123
22	0x3c25c805	0.010118489
23	0xbc4289fd	-0.011873719
24	0x3c7b0e66	0.015323257
25	0x3c27c913	0.010240811
26	0x3d038411	0.03210837
27	0x3ac22b72	0.0014813973
28	0x3d09c70e	0.0336371
29	0x3c1662d1	0.009178833
30	0x3c238291	0.00997986
31	0xbb580d12	-0.0032966775
32	0x3be5276e	0.006993226
33	0x3b81d49e	0.0039621135
34	0x3ab3c2c5	0.0013714662
35	0xbbd06924	-0.00636019
36	0xbc1366af	-0.00899665
37	0x3cd5903d	0.026069755
38	0x3d07f57d	0.0331931
39	0x3b8e63dc	0.0043454003
40	0x3d2db32c	0.0424072
41	0x3cd178b1	0.025570245
42	0x3b9a3a90	0.004706688
43	0xbd142b9a	-0.036174394
44	0xbcff06c3	-0.031131154
45	0xbcc45a9a	-0.023968983
46	0xbb4e93f3	-0.003152129
47	0x3c0bb3a0	0.008526713
48	0x3c4ba986	0.012430554
49	0x3c56a897	0.013101718
50	0x3b73dbe7	0.003720993
51	0xbbb4e861	-0.005520866
52	0x3a7d042a	0.00096518046
53	0xbc2a9093	-0.010410446
54	0x3a9e7190	0.0012088288
55	0x3c4aa162	0.012367578
56	0xbb43150a	-0.002976718
57	0x3c0c9074	0.008579362
58	0xbaae4541	-0.0013295786
59	0x3c711e78	0.014716737
60	0xbd673db5	-0.056455333
61	0x3a11bb43	0.0005559215
62	0xbc0da838	-0.0086460635
63	0xbbfb2c62	-0.007665203
64	0x3c13f9d4	0.009031732
65	0xba6cb9b5	-0.0009030358
66	0x3c3a0568	0.011353828
67	0x3bab5cec	0.005229583
68	0xbc99156a	-0.018686969
69	0x3cd89fdf	0.02644342
70	0xbcdf7376	-0.027276736
71	0x3bf8224a	0.007572447
72	0xba1e2665	-0.0006032943
73	0xbb931a7b	-0.0044892407
74	0xbba9a0be	-0.0051766327
75	0x3c62c7cd	0.0138415815
76	0x3c2622a3	0.010140094
77	0xbc9901e7	-0.018677665
78	0x3cf6012d	0.030029858
79	0x3c5081e3	0.01272628
80	0x3c28b889	0.010297903
81	0x3c0e9067	0.00870142
82	0xbd002609	-0.031286273
83	0x3cad504a	0.021156449
84	0x3c2958d0	0.010336116
85	0xbd13b170	-0.03605789
86	0xbc02c897	-0.007982395
87	0x3aa73d68	0.0012759389
88	0x3c10b84f	0.008833005
89	0x3c8acaf0	0.016942471
90	0xbbfe1f46	-0.007755193
91	0x3ccc41b6	0.024933677
92	0xbb915026	-0.0044346033
93	0x3bea0490	0.007141657
94	0xbbfacd9e	-0.007653906
95	0x3bd8a866	0.0066118715
96	0xbc9ccba9	-0.019140081
97	0xbcbc6757	-0.022998495
98	0xbc137eed	-0.009002429
99	0xbb152306	-0.0022756471
100	0xbc2304e2	-0.009949895
101	0x3c1746c5	0.009233181
102	0xbc2bc132	-0.010483073
103	0x3cafdd79	0.021467911
104	0xbc446831	-0.011987732
105	0xbc1e9241	-0.009678424
106	0xbc0f8bee	-0.008761389
107	0xbcec2964	-0.02882833
108	0xbbc76391	-0.0060848673
109	0x3c49fc1c	0.012328174
110	0xbc0ad28f	-0.008473053
111	0x3c0659f3	0.0082001565
112	0x3bcfe5f7	0.0063445526
113	0x3bc3deb3	0.0059774756
114	0x3ae5e089	0.001753823
115	0xbc2dddbd	-0.010611949
116	0x3c2c4764	0.010515068
117	0xbbcf8c86	-0.0063338904
118	0x3c86b09f	0.016441641
119	0xbd15e328	-0.036593586
120	0xbd09c897	-0.033638563
121	0xba5fae70	-0.0008532768
122	0x3c223d63	0.009902331
123	0x3ba6bbd5	0.0050883093
124	0xbc94164d	-0.01807704
125	0x3c507920	0.012724191
126	0xbb7f4673	-0.0038951903
127	0xbb50a185	-0.0031834554
128	0xbd3117be	-0.043235533
129	0x3a46faac	0.00075904536
130	0xbc0d8b64	-0.00863919
131	0xbbe93a05	-0.007117512
132	0xbc1408b7	-0.009035281
133	0xbc37bb54	-0.011214096
134	0x3bd7924a	0.0065787183
135	0x3c50b507	0.012738473
136	0x3c4af608	0.01238776
137	0xbc25eac6	-0.010126775
138	0xbcc4ef27	-0.024039818
139	0xb8060874	-3.1955962e-05
140	0xbc0ea3ec	-0.008706074
141	0x3c025728	0.00795535
142	0x3bfdeec8	0.007749412
143	0x3b85fa65	0.0040886872
144	0x3c758751	0.014985875
145	0xbc1a82b2	-0.009430574
146	0xbbc493bc	-0.0059990566
147	0x3ce0b091	0.027427943
148	0x3c983fa1	0.018585028
149	0x3c3a1ca5	0.011359368
150	0xbba18e8d	-0.0049303235
151	0xbccfd11f	-0.025368271
152	0x3c3302d2	0.010925965
153	0xba1f88b1	-0.0006085737
154	0xbca336b5	-0.019923547
155	0xbccb0219	-0.024781274
156	0xbc0665df	-0.008202999
157	0x3ccd4933	0.025059318
158	0x3b3b69a6	0.0028596907
159	0xbc55f6bb	-0.013059313
160	0x3c24704d	0.01003654
161	0xbc660282	-0.014038684
162	0x3c2ccc33	0.010546732
163	0xbcfa0727	-0.030520989
164	0x3be1201f	0.006870284
165	0x3bdfc7ac	0.0068292227
166	0xbbdfcacc	-0.006829595
167	0xbb134b7f	-0.002247542
168	0x3a8f3613	0.001092615
169	0x3c63e87a	0.013910407
170	0x3c6c419f	0.014419942
171	0x3c1d341b	0.009594942
172	0xb988f8a7	-0.00026125202
173	0x3cef5aa7	0.029218031
174	0x3ce781de	0.028260168
175	0x3cd91bc7	0.026502503
176	0xb842ff33	-4.6490877e-05
177	0xbc02c4d5	-0.007981499
178	0xba00a3ca	-0.0004907219
179	0x3cc54fd5	0.024085918
180	0xbcda8d64	-0.026678748
181	0xba3863ea	-0.00070339313
182	0xbbab613f	-0.0052300985
183	0x3cf4f85f	0.029903589
184	0x3beef490	0.0072923377
185	0xbc21565a	-0.009847248
186	0x3b00a31f	0.0019628478
187	0xbbd27429	-0.006422539
188	0x3c21bec7	0.009872145
189	0x3b9dc313	0.0048145144
190	0xbcade7ab	-0.021228632
191	0xbbb440e1	-0.005500898
192	0xbe98f84a	-0.2987693
193	0xbf19b22e	-0.60037506
194	0xbeee59f1	-0.46552995
195	0xb9e91cb5	-0.00044462612
196	0x3eb67a07	0.35639974
197	0xbf4587d5	-0.7716039
198	0x3f1b99ad	0.60781366
199	0xbea36a1b	-0.3191689
200	0x3efd5e7f	0.49486157
201	0x3db3b2b8	0.08774322
202	0x3f0ad585	0.54232055
203	0xbe84bc5f	-0.25924966
204	0xbde437b0	-0.11143434
205	0xbf0a9c57	-0.54144806
206	0x3f0f8773	0.56066054
207	0xbe2f9943	-0.17148308
208	0xbd0bfde7	-0.034177687
209	0xbd2987b2	-0.041389175
210	0x3f1d5471	0.6145697
211	0xbf773d8c	-0.9657829
212	0x3f24315f	0.64137834
213	0x3eda48fe	0.42633814
214	0xbe8280dd	-0.2548894
215	0xbda93ed7	-0.08263939
216	0xbe75e37e	-0.24012563
217	0x3d3e170a	0.04640869
218	0xbd0c5d35	-0.034268577
219	0x3d121df6	0.035673104
220	0xbdd91c03	-0.10601046
221	0xbe065311	-0.13117625
222	0x3d727ad3	0.059199166
223	0xbede7e52	-0.4345575
224	0xbf18cc23	-0.5968649
225	0xbe9a65de	-0.30155843
226	0xbf0210f7	-0.50807136
227	0xbd3b6f2a	-0.04576031
228	0xbd8493ec	-0.06473526
229	0xbea92536	-0.33036202
230	0xbeee5bc3	-0.46554384
231	0x3e90258b	0.28153643
232	0xbebf89d0	-0.3740983
233	0xbd8a75a6	-0.06760721
234	0x3d3cec6a	0.0461239
235	0x3e261a82	0.1622105
236	0x3ca3195d	0.019909555
237	0xbf280e0e	-0.65646446
238	0x3e4451c5	0.19171818
239	0xbe0dc5b1	-0.13844945
240	0x3f52dea7	0.8237099
241	0x3d71e068	0.0590519
242	0x3d622c96	0.0552183
243	0xbd1413dc	-0.036151752
244	0xbd8022e2	-0.06256653
245	0x3f3d955a	0.7405602
246	0x3e46ae95	0.19402535
247	0x3eecaa5e	0.4622373
248	0x3e3f0f48	0.18658173
249	0x3e837e04	0.2568208
250	0xbed64bd1	-0.41854718
251	0x3eb7059e	0.35746473
252	0xbf5db873	-0.8660957
253	0x3e70f392	0.23530415
254	0xbd222af6	-0.039591752
255	0xbe3d8c32	-0.18510512
